augmentation_models/tabsyn/vae/ckpt/adult/model.pt (torch, 69286 bytes, 112 tensors)

VAE.Tokenizer.weight f4 [7, 4]
000000 92 4d c4 be 5e de f1 be 83 48 61 bd 8c e9 b1 3e
       -0.3834043 -0.47239965 -0.055000793 0.34748495
000010 86 fa e6 bd 71 be cb be 51 56 2c 3e d8 f3 fe 3e
       -0.11278252 -0.39793733 0.16829802 0.49795413
000020 b2 3d 96 be a6 e9 09 bf 33 8b ca 3e 46 c3 a8 bb
       -0.29343945 -0.53872144 0.39559326 -0.0051502315
000030 57 55 94 be 9b 9b 42 3e 74 6c 3a 3d 4a 72 db 3e
       -0.2897136 0.19004671 0.045513585 0.42860633
000040 2e 3a d5 be c3 46 5c 3e f6 36 ca be 8a d9 61 be
       -0.4164595 0.21511368 -0.39495057 -0.22055641
000050 38 0f bb 3e 0f f8 7f be 74 b1 a5 be 48 b2 ed 3e
       0.36535048 -0.2499697 -0.32361948 0.4642508
000060 3d 68 4d 3d 5c e1 b4 3c f2 22 cb be 5e fc e9 3e
       0.050148237 0.022080116 -0.396751 0.45700353

VAE.Tokenizer.bias f4 [15, 4]
000000 41 a8 b3 be 9a bd 03 bf 7d 16 9c be 8a 35 ad 3e
       -0.35089305 -0.51461184 -0.30485907 0.3382991
000010 90 5c 33 bd 74 bb df 3c c9 f4 ab be e4 2c 8c 3e
       -0.043789446 0.027311064 -0.33585194 0.27378
000020 28 75 f1 be 53 4c dd 3e 89 6b ad bd fc d5 4a be
       -0.47159696 0.43222293 -0.08467776 -0.19808191
000030 38 e1 b9 3e 29 c1 89 3d 23 67 d5 39 99 57 c8 3e
       0.3630464 0.067262955 0.0004070337 0.39129332
000040 45 06 9b bd 1b 8d c6 bc 3d 8a a5 bd cb 9a 01 3f
       -0.07569555 -0.024237206 -0.080830075 0.5062682
000050 7d ab d6 3c 42 5a 8a be 36 66 7f 3e c1 69 51 3e
       0.026204819 -0.27021986 0.24941334 0.20450498
000060 86 08 cf bd 15 09 41 3e 75 58 d8 bd ff 42 24 3c
       -0.101090476 0.18851121 -0.10563747 0.010025739
000070 eb cb d2 be cb 53 45 be 61 27 9b bc c4 fc 9c be
       -0.41171202 -0.19270246 -0.018939676 -0.30661595
000080 75 fd 8b 3e 80 43 d0 bd 13 83 12 bd 3a ac 5f 3e
       0.2734181 -0.101691246 -0.035769533 0.21843043
000090 ee d7 dc 3e 86 ea 5b 3e 8c 31 72 bc 36 35 33 3d
       0.4313349 0.21476182 -0.014782321 0.043751918
0000a0 22 f6 4d be c0 82 db 3e 00 05 f8 be f7 b0 6d be
       -0.20113423 0.42873192 -0.48441315 -0.23212038
0000b0 ff 55 9e 3e bb 3a 42 3e 29 ad cb 3d c0 b0 bb be
       0.30924985 0.18967716 0.09945137 -0.36658287
0000c0 99 0f 73 3d c3 60 d5 be 39 00 93 be b6 1d 66 3e
       0.059341047 -0.41675386 -0.28711107 0.22472271
0000d0 8d 2f 0d 3e 82 82 af 3e 4c 35 41 3e 30 44 87 3e
       0.1378767 0.34279257 0.18867987 0.2641921
0000e0 4a 21 7c be f9 b4 67 be ae 84 82 be 40 f2 bb be
       -0.24622074 -0.2262763 -0.25491852 -0.3670826

VAE.Tokenizer.category_embeddings.weight f4 [104, 4]
000000 63 48 c5 3e 30 a4 eb 3e f0 ba b7 be 9d b6 68 3e
       0.3853179 0.46023703 -0.3588481 0.22725911
000010 2b 1b bd be fa 66 87 be 4f a8 af be 8d 46 ab be
       -0.3693479 -0.26445752 -0.34308097 -0.33452263
000020 26 25 0c 3e 7c 3a c9 bd 55 84 17 be cf 0c 83 3e
       0.13686046 -0.09825608 -0.14796574 0.2559571
000030 3f 90 b4 be 74 3f e7 be 0f ad 9a 3e ee 87 af 3e
       -0.352663 -0.45165598 0.30210158 0.34283394
000040 f5 dc 9b 3e 4e ec 9a 3e b7 bd c4 be f0 9a 9f 3e
       0.30442014 0.3025841 -0.3842599 0.31172895
000050 f8 b3 e2 3e b2 70 fe be 64 ae 4b 3e a1 18 d6 be
       0.4427793 -0.49695355 0.19890743 -0.41815665
000060 1d 6e d9 3e 63 7c a7 be 6d e6 d7 be 2e ba 83 3e
       0.42466822 -0.32712087 -0.42167988 0.2572798
000070 9c d5 db be ec c7 29 be aa 81 09 bd eb 6d d7 3e
       -0.4293641 -0.1658017 -0.033570923 0.42076048
000080 33 d7 d8 3e 4b 6c 87 3d 73 14 6d bb c8 e8 83 be
       0.42351684 0.06612452 -0.0036175519 -0.25763535
000090 d7 a4 d6 3e 19 b5 c2 be 95 d6 bf 3e 42 f9 8d be
       0.41922638 -0.38028792 0.374684 -0.2772923
0000a0 e2 bc 6d 3e c6 48 60 3e a7 bd 05 3f 51 30 83 3e
       0.23216584 0.21902761 0.5224251 0.256228
0000b0 34 36 e4 be 29 ec 19 3d 9c b9 37 be 27 7a 60 3e
       -0.44572604 0.037578736 -0.17941898 0.21921597
0000c0 10 ae 0c be 9c 62 b3 3d 38 30 c4 3e af be 08 bf
       -0.13738275 0.087590426 0.38318038 -0.5341596
0000d0 81 ee 89 be e1 4f b8 3e 24 2d ce be d2 7f e2 bd
       -0.26939777 0.35998443 -0.40268815 -0.11059536
0000e0 d1 35 ae be e8 f7 e9 be bc a8 f5 bd 9b 1b ca 3e
       -0.34025434 -0.4569695 -0.11995074 0.39474186
0000f0 f9 19 83 3e 8b 70 aa bb e1 f4 67 bd 12 5d 2d be
       0.25605753 -0.0052014044 -0.05663002 -0.16930035
000100 11 fb a2 bc 15 4f a6 bd 39 1a 59 3e 62 5b dd be
       -0.019895108 -0.081205525 0.2120141 -0.43233782
000110 95 ab 97 be 23 0c c0 be ad f9 05 3e 37 87 56 be
       -0.29623094 -0.3750926 0.13083525 -0.20950018
000120 9a 36 d8 3e f7 84 95 be 06 a6 f8 be 3a 14 75 be
       0.42229158 -0.29203007 -0.48564166 -0.23933497
000130 88 22 6d 3e 08 b5 99 be b8 1e 1e 3d 45 78 0e 3e
       0.23157704 -0.30020928 0.038603514 0.13913067
000140 df 67 b1 3e 61 d0 25 3e 20 c9 ac 3e 68 8e 78 bd
       0.3464956 0.16192771 0.33747196 -0.060682684
000150 ee 9d e3 be 72 ca b4 be 2a f7 2e 3e 56 c5 18 3e
       -0.44456428 -0.35310704 0.17086473 0.14919028
000160 a6 3c b2 3d 12 16 da 3d bc 98 92 3e 65 9d cf 3e
       0.08702974 0.10648741 0.28632152 0.4054977
000170 b7 8e 59 3e 8b fc 23 be fb 73 cb be 32 65 65 bd
       0.21245848 -0.16014306 -0.39736924 -0.05600471
000180 62 16 8e 3e 84 0d b7 be 36 7d 3c 3d d5 e6 78 3e
       0.27751452 -0.357525 0.046017848 0.24306805
000190 22 ef ac 3e 51 d4 e4 3e 48 38 bc 3e ea 62 46 be
       0.33776194 0.44693235 0.3676169 -0.1937367
0001a0 16 c6 a7 3b 0b 32 f8 be 1c 82 9c 3e fa f3 f7 be
       0.005120049 -0.4847568 0.30568016 -0.48428327
0001b0 fe ce 04 3e 61 0d 09 3d c1 66 1b be 3e 5c c9 3d
       0.12969586 0.033460025 -0.15175916 0.09832047
0001c0 90 02 84 bd 26 99 2d 3e ef f6 29 bd 47 43 61 3e
       -0.06445801 0.16952953 -0.04149526 0.2199832
0001d0 a8 c4 a6 be 87 0d 0f 3f a4 4b c0 be 02 e1 be 3d
       -0.32571912 0.55880016 -0.3755771 0.093202606
0001e0 54 78 dc 3e 75 9e 93 bd 26 b7 35 3e e9 54 dc 3e
       0.43060553 -0.07207958 0.17745647 0.4303353
0001f0 76 59 80 bd 71 7b df bc 8e da 39 3d af 48 80 be
       -0.06267063 -0.027280541 0.045374446 -0.25055453
000200 39 ca 84 3e 46 7e a9 be 82 e4 e1 be 39 a3 03 3e
       0.25935534 -0.3310415 -0.4411965 0.12855233
000210 dd fe 05 3e f7 50 40 be 54 e2 96 be 23 1c d1 3e
       0.13085504 -0.18780886 -0.2946955 0.4084178
000220 0a b2 24 bc c0 39 eb be 05 8d ba bd f4 4a ce 3e
       -0.010052213 -0.45942497 -0.091089286 0.4029156
000230 9a 09 81 3e 95 27 99 bd 56 0a c0 3e c0 13 9c 3e
       0.25202638 -0.07478253 0.37507886 0.30483818
000240 8b cc 75 3d 81 fe 32 3d ba 2d c0 be 3c a4 57 3d
       0.06000952 0.043699745 -0.37534887 0.05264686
000250 2a d3 ce 3e 76 2a 9c 3e c6 84 23 3e a4 86 e9 3e
       0.4039548 0.30501145 0.15968618 0.45610535
000260 ac 8d 7d be e6 e5 0d be b6 50 a9 be 6c b6 68 3e
       -0.24761075 -0.1385723 -0.3306939 0.22725838
000270 99 76 af 3e 5d 20 1d 3e b9 3b 4c 3e ad 1d 2c be
       0.3427017 0.15344377 0.19944657 -0.16808195
000280 93 4e b1 3e c7 42 03 3f 10 24 df 3d a7 3e fa be
       0.3463026 0.5127377 0.1089555 -0.48875925
000290 c3 e1 bd bd 54 8e 71 3e 0e 68 8a be 2b 98 e1 bd
       -0.09271576 0.2358945 -0.27032512 -0.11015352
0002a0 f7 c8 d2 bd 05 88 c4 be 09 64 e3 3e 60 ff 32 be
       -0.10292237 -0.38385025 0.44412258 -0.1748023
0002b0 51 21 c7 bc fe 4e bb be ec 7e b8 be 62 f3 a3 3e
       -0.024307879 -0.36583704 -0.36034334 0.32021624
0002c0 17 08 6f be 58 73 90 be c7 25 05 be b1 90 3c bd
       -0.2334293 -0.28213 -0.13002692 -0.046036426
0002d0 49 64 8c 3e 43 1b d7 be 36 d9 ab be eb 1f ed be
       0.27420262 -0.42012987 -0.33564156 -0.46313414
0002e0 b1 07 97 3d 07 c4 aa be 22 31 b2 3e 17 19 6b be
       0.07374514 -0.33352682 0.3480311 -0.2295879
0002f0 12 b8 14 be 8d ec 95 be a7 a0 2f 3e af db 59 be
       -0.14523342 -0.29282036 0.17151128 -0.21275209
000300 1a a6 e7 be 32 48 cb be 35 55 bd be 83 2b 4a be
       -0.45243913 -0.39703518 -0.3697907 -0.19743161
000310 5a be ff be aa 84 9e be c1 cc 3b be 2e 1a 9b be
       -0.49949914 -0.3096059 -0.18339826 -0.3029341
000320 f0 eb d3 3d 40 ae e2 bd e4 04 cd 3e 8c 1e b8 3e
       0.10347736 -0.11068392 0.40042794 0.35960805
000330 24 f0 dd be a7 af c0 be 97 40 bf 3e 92 89 b7 3e
       -0.43347275 -0.37634012 0.37353966 0.35847145
000340 30 e2 69 be ed 34 29 be 3f 2a 44 bc 6a b2 e4 be
       -0.2284019 -0.16524096 -0.011972963 -0.4466737
000350 54 dd 04 3f dd 9d 9e bd 9e de c6 3d e6 07 09 3f
       0.5190022 -0.07744954 0.097104296 0.5352768
000360 c4 ef 51 be cd 70 bb 3e 4d 76 a2 3d 42 d1 44 3e
       -0.2050162 0.36609498 0.0793272 0.1922045
000370 d5 c2 01 be bc 4b c9 be 45 60 b3 bd 40 eb b4 be
       -0.12671979 -0.39315593 -0.08758596 -0.35335732
000380 9a d5 2e 3d 1f e3 c4 bd aa f1 8e 3e c9 a9 be 3e
       0.042684175 -0.096136324 0.2791875 0.3723891
000390 12 4c 9f be 31 90 0a bf 26 ab c4 bd 98 94 f8 bd
       -0.31112725 -0.5412627 -0.096029565 -0.12137717
0003a0 0e cd f8 3d 34 9a 06 be 4b cc a3 bd 61 a0 da be
       0.12148486 -0.13144761 -0.0799795 -0.42700484
0003b0 11 42 d1 be 97 ed bf be 66 aa 44 3e 03 12 a8 be
       -0.40870717 -0.37485954 0.19205627 -0.32826242
0003c0 1c f2 b9 3e 79 b6 8a 3d 92 72 9e be 9a ee b7 be
       0.36317527 0.06773085 -0.30946785 -0.35924226
0003d0 fb 91 45 3e ef 34 ac 3e 33 d7 53 3e 02 31 e3 be
       0.19293968 0.33634135 0.2068756 -0.44373327
0003e0 1e 82 f3 bd 25 64 52 be 75 74 15 3e 69 4c bd 3e
       -0.11890052 -0.20546015 0.14595206 0.3697236
0003f0 04 49 c0 3e 9d 01 4d be 09 1c ff 3e 1b d9 f3 3e
       0.37555707 -0.20020147 0.49826077 0.47626576

VAE.encoder_mu.layers.0.attention.W_q.weight f4 [4, 4]
000000 49 01 de 3e 41 ba 4e 3e 60 e3 80 3e fe f1 87 3e
       0.43360355 0.20188238 0.25173473 0.26551813
000010 44 64 f0 be 60 61 d3 3e 6a 86 9f bd 17 0b fd be
       -0.46951497 0.4128523 -0.07789309 -0.49422523
000020 39 e3 4a be 21 5f e5 be 60 85 eb bd 99 28 e0 3e
       -0.19813241 -0.4479914 -0.11500049 0.43780974
000030 4c fc 0b 3e f3 9d 5c 3e 7a 93 d6 3d a7 ae bb 3e
       0.13670462 0.21544628 0.10477348 0.36656687

VAE.encoder_mu.layers.0.attention.W_q.bias f4 [4]
000000 45 79 bc 3c 08 13 e3 3c 07 5d c0 bc 42 34 9e 3c
       0.023007045 0.027719036 -0.023481859 0.019312028

VAE.encoder_mu.layers.0.attention.W_k.weight f4 [4, 4]
000000 e2 25 f7 3e aa df 60 3e b3 c4 59 3e 7a 67 5b bc
       0.4827109 0.21960321 0.21266441 -0.01339137
000010 d2 d4 33 3e 4e 9e 09 3f b8 38 35 3e a3 e6 a2 bd
       0.17561653 0.5375718 0.17697418 -0.07954147
000020 d2 b9 64 3d 02 bf c3 be 46 ea 71 3e 86 96 f5 be
       0.055841275 -0.38231665 0.23624524 -0.47966403
000030 5a 3c 75 3e 23 04 be be cf 01 ac 3e 2e de 0d bd
       0.23948804 -0.3711253 0.3359513 -0.034635715

VAE.encoder_mu.layers.0.attention.W_k.bias f4 [4]
000000 6b 5a ec 39 fc 47 2c ba 0d 72 3c b8 bf b5 96 39
       0.00045080794 -0.0006572006 -4.492891e-05 0.0002874564

VAE.encoder_mu.layers.0.attention.W_v.weight f4 [4, 4]
000000 68 92 dd be 05 b5 52 3e a6 c5 80 3e b5 02 b1 be
       -0.43275762 0.20576866 0.25150794 -0.34572378
000010 d8 59 02 bf 15 5b 3b 3e f3 58 7b be 01 dc ca be
       -0.5091834 0.18296464 -0.2454565 -0.39620975
000020 29 eb ca be 32 1d eb 3e 20 52 62 3d 9f f5 dd be
       -0.39632538 0.45920712 0.0552541 -0.43351457
000030 37 48 8e 3e a3 18 03 3f cc 76 e6 3e 39 f2 0e bb
       0.2778947 0.5120947 0.4501251 -0.0021811856

VAE.encoder_mu.layers.0.attention.W_v.bias f4 [4]
000000 f8 fa fb bc ea 5e 83 3c 61 ae 05 3c 2a f3 15 bc
       -0.03075932 0.01603647 0.008159251 -0.009152213

VAE.encoder_mu.layers.0.linear0.weight f4 [128, 4]
000000 28 14 04 bf 99 81 68 bb 9f 4f e1 3e c0 41 a4 be
       -0.51593256 -0.0035477637 0.4400606 -0.32081413
000010 57 bb ba bc d1 13 7e be 14 92 bd 3e eb 54 cc 3e
       -0.022794409 -0.24812247 0.3702551 0.39908537
000020 49 3d fa be 76 60 54 be 8a 60 2d be d3 32 a3 be
       -0.48874882 -0.20739922 -0.16931358 -0.31874713
000030 34 b6 0d be 98 10 b4 bd d5 48 08 be 59 d7 20 3e
       -0.13839036 -0.087922275 -0.13309033 0.15707149
000040 8d 02 64 be 09 ee 9a 3e 13 94 4d be 8f 4b f8 3d
       -0.22266598 0.3025973 -0.20076017 0.12123787
000050 0c 22 08 3f 8a 6e b4 bb 5d 01 a4 3d 0f 1d f6 3c
       0.5317695 -0.0055063413 0.080080725 0.030043153
000060 ae ab 14 3e 2d 4e 80 bd 34 b0 a8 bd e6 60 10 be
       0.14518616 -0.06264911 -0.08236733 -0.14099464
000070 c0 88 ca 3e 82 fb 1e be 21 f0 a7 3e ea b3 51 be
       0.39557457 -0.1552563 0.3280039 -0.20478788
000080 49 14 b4 3e fa af 87 3e 2a 8e 8c 3e 89 1c 1b 3e
       0.35171726 0.26501447 0.27452213 0.15147604
000090 e6 68 ca 3e 6a 88 f1 3e 33 fa 92 be d2 12 ab 3d
       0.39533156 0.47174388 -0.28706512 0.08353199
0000a0 a1 53 71 be 3f 09 a0 be 3a 2f 6d 3e 85 2e b3 3d
       -0.23567058 -0.31257054 0.23162547 0.08749107
0000b0 41 0f 79 3e a7 23 ac 3d ef b2 91 3e 13 6d 22 bd
       0.24322225 0.08405238 0.28456828 -0.039654803
0000c0 13 ea 4e 3e 2d 3d c9 be 65 03 e1 3e 55 47 f9 3e
       0.2020648 -0.39304486 0.43947902 0.48687235
0000d0 3e 4d bf 3e 1a ea 2e be f7 66 f0 be 38 ba f5 be
       0.3736362 -0.1708149 -0.46953556 -0.47993636
0000e0 72 ec 7a bd cc 1d a3 be 5b b9 82 3e be 8d 29 3d
       -0.061260648 -0.3185867 0.2553204 0.04139494
0000f0 8f 39 c3 3e b1 b0 d1 3e c1 d7 1d bd c0 a2 05 be
       0.3812985 0.40955117 -0.038535837 -0.13050365
000100 3d ee 95 bd 70 9f 3c be 2d 97 29 be 7f e8 aa bb
       -0.07320831 -0.18420196 -0.16561575 -0.005215704
000110 42 e8 af 3e bf e4 5a be f5 98 da 3d eb a5 b5 3e
       0.34356886 -0.21376322 0.106737055 0.35478148
000120 5d a2 01 3e 6f 18 da 3e 35 b9 3b 3d 74 f5 e6 3e
       0.12659593 0.42596766 0.045830924 0.4510914
000130 ae 71 bb be 36 89 24 be 06 30 21 be 87 5b f4 3e
       -0.36610168 -0.16067967 -0.15740976 0.4772608
000140 90 de 4b 3d c0 14 d2 be 73 f3 c4 3c 49 1a 98 be
       0.0497728 -0.41031456 0.024041867 -0.29707554
000150 c7 0a c7 3e 61 c3 b2 3e a1 1c 3a 3e 2f 9f a2 3e
       0.3887541 0.34914687 0.18174984 0.31762072
000160 ca 82 8f bd 53 f6 fa bd d3 9d ec be d1 8d 29 be
       -0.07007368 -0.12254014 -0.4621416 -0.16558005
000170 a9 4d 00 bf 60 30 33 3c bb 73 f3 be 8d 89 8f 3e
       -0.501185 0.0109368265 -0.47549233 0.2803463
000180 58 4d c6 bb 8f 7c 88 3e a1 b2 aa 3e ec 67 78 bd
       -0.0060517006 0.2665753 0.33339408 -0.060645983
000190 63 b1 3c 3d 11 0e 02 3f 9c b6 38 3e 1a c3 a7 3d
       0.046067607 0.50802714 0.1803841 0.081915095
0001a0 66 f3 2b 3e 14 3f b8 3c f8 3c 05 bf 17 c4 8a 3d
       0.16792068 0.022491015 -0.52046156 0.067756824
0001b0 dc 7b 82 be 5b 2b a2 be b2 c2 a3 be b3 f7 38 be
       -0.25485122 -0.31673703 -0.31984478 -0.1806324
0001c0 f4 13 05 3f c0 30 90 3d 03 13 f7 3e bd 0b 9e 3e
       0.5198357 0.07040548 0.48256692 0.3086833
0001d0 8e 87 7f 3e 36 a5 b1 be a7 f6 ef bd c4 88 8c 3e
       0.24954054 -0.34696358 -0.11716967 0.27448094
0001e0 9c bd d3 3e e8 5a 05 3e 95 a2 e7 3e 35 8b c2 3e
       0.41355598 0.13022959 0.45241228 0.37996832
0001f0 95 e8 d2 3e be 6d e9 bd b4 10 b8 3e 20 d0 0f 3e
       0.4119307 -0.11397885 0.35950243 0.14044237
000200 90 2a 7c 3e c7 30 40 be df e4 bd 3d f6 e7 a4 3d
       0.24625611 -0.18768607 0.09272169 0.080520555
000210 26 49 89 be b7 c1 1f be 43 2e 69 3e 4f 7d bb be
       -0.2681362 -0.1560124 0.22771554 -0.3661904
000220 ca 17 b7 3e 5d 12 56 be 8a 92 af 3d 28 30 69 bd
       0.35760337 -0.20905443 0.08572872 -0.05693069
000230 a0 38 b5 3e 15 3e 84 be 44 f5 69 be 87 cc 97 be
       0.35394764 -0.25828615 -0.22847468 -0.2964823
000240 78 36 22 3c 3c 60 87 3e 88 3c ed 3e 75 3d c5 3e
       0.009900682 0.26440609 0.46335244 0.3852345
000250 dc 65 1e 3e b4 e9 4d be 22 07 b8 bd 10 ad 32 bc
       0.15468544 -0.20108682 -0.089857355 -0.010905519
000260 1b cf 6a be a7 49 b6 be b6 b9 7d be 06 51 db 3e
       -0.22930567 -0.35603067 -0.24777874 0.42835253
000270 4d 01 8c 3e b3 87 eb bb e4 5b 1b be 1b e9 00 3f
       0.27344742 -0.0071878075 -0.15171772 0.5035569
000280 35 50 02 bf 21 3e 91 3e 7b 8d 04 3f 53 5d f2 be
       -0.50903636 0.28367713 0.5177838 -0.47336826
000290 b4 20 e7 be 65 01 de bd de 11 5a be 8e 5c 3c be
       -0.45142138 -0.1084011 -0.21295878 -0.18394682
0002a0 39 89 6a bd 8f a1 a1 3e 48 41 7a 3d dc 85 9f be
       -0.057259772 0.31568572 0.061097413 -0.31156814
0002b0 7a 71 90 3e 63 4c 4c bd 6f 22 33 bd 37 5b 82 3e
       0.28211576 -0.049877536 -0.04373401 0.25460216
0002c0 9e 93 fe be 5b 27 37 be d2 a1 ab be 93 bb d9 3e
       -0.49721998 -0.17886107 -0.33521897 0.4252592
0002d0 53 7b 3a be a8 3a 7a 3e dd 68 b1 3d a1 96 47 3e
       -0.18211107 0.24436438 0.08662579 0.19491054
0002e0 c3 77 80 bd 55 a5 45 be a2 da a0 be 8a 00 ec bd
       -0.06272843 -0.1930135 -0.31416804 -0.1152354
0002f0 99 b7 89 3e 18 4e 92 3e 8c e3 ad 3e dd 8c aa bd
       0.26897886 0.28575206 0.33962667 -0.08327649
000300 74 93 f7 be 6f 68 86 be b3 89 42 be 12 90 e5 be
       -0.48354685 -0.26251552 -0.1899784 -0.4483648
000310 d6 4c 9a 3e 6a 9a 80 3e 4d 50 23 3d 27 c0 98 be
       0.30136746 0.2511781 0.039871503 -0.298341
000320 bf 13 71 3e 01 2f a0 be ff 3a ab bb 24 5b e3 3e
       0.23542689 -0.3128586 -0.0052255387 0.44405472
000330 41 44 0a bd 46 1e cc be b0 9a ae 3e 34 33 01 bf
       -0.0337565 -0.39866847 0.34102392 -0.50468755
000340 1a 3c ac 3e 51 ea 32 be d6 a8 22 3e 1f 54 75 3e
       0.33639604 -0.17472197 0.15884718 0.23957871
000350 fd fa c8 bd 43 58 a1 3e 62 f4 63 be 7d 34 d7 bd
       -0.09813497 0.3151265 -0.22261193 -0.10508058
000360 ab 5d b7 be ce e1 b1 3e 7f 4e 3b 3b 14 29 78 be
       -0.3581365 0.34742588 0.0028580723 -0.2423442
000370 a4 5d b1 bd d4 15 fe 3e 12 e4 74 3d 9b 33 c8 be
       -0.08660439 0.4962603 0.059787817 -0.39101872
000380 5e 8f 4f be 68 6b ca be 0a 0c e3 be 96 cc 7a be
       -0.20269534 -0.3953507 -0.44345123 -0.24492106
000390 be 2d a4 3e fa ef a6 be 9d d2 dc 3d c3 df 3d be
       0.3206615 -0.32604963 0.10782359 -0.1854239
0003a0 a8 7e c7 be 9f 1b a4 be d9 24 65 3e c8 f4 bb 3e
       -0.3896382 -0.32052323 0.22377338 0.3671019
0003b0 57 7a fd 3e c7 2d 87 3e df 03 80 3d 14 f6 82 3e
       0.495074 0.26402113 0.06250738 0.25578368
0003c0 16 13 8c 3e 79 dd ca be 10 f9 07 3c 27 cf 3e be
       0.2735831 -0.39622095 0.008299127 -0.1863371
0003d0 60 d2 b9 3e 06 10 10 3e 78 6a c0 bd 8f 67 9d be
       0.36293316 0.14068612 -0.09395307 -0.3074307
0003e0 1b 1f 99 bd 50 45 d3 be f5 89 04 3e f2 c0 ad be
       -0.07476636 -0.4126382 0.12943251 -0.33936268
0003f0 87 b4 1d be 17 f2 ea 3e 3d e7 d1 3b 6d c8 2e 3c
       -0.15400897 0.45887825 0.0064057396 0.010667902

VAE.encoder_mu.layers.0.linear0.bias f4 [128]
000000 21 c0 11 3e dd 62 10 3e 3c 80 02 bd c4 d1 a7 bd
       0.14233448 0.14100213 -0.031860575 -0.081943065
000010 6c d1 c4 3e c1 e9 c1 3e 67 62 d4 bd cf a7 e1 be
       0.38441026 0.37873653 -0.10370331 -0.4407334
000020 80 ba ba 3e fd 9e f0 3e 79 b9 d7 3e 7d 30 a4 be
       0.36470413 0.46996298 0.42133692 -0.32068244
000030 3e e6 50 3e 59 ba 00 3e d8 49 cc be e3 3d a1 bc
       0.2040033 0.12571086 -0.39900088 -0.01968283
000040 38 74 a3 bc ba b9 35 3e 84 35 40 3d 52 d2 c1 be
       -0.019952878 0.1774663 0.046926036 -0.37855774
000050 c4 ea e7 be 39 c3 e2 3e 08 c2 65 be 49 bf 2f 3e
       -0.452963 0.44289568 -0.22437298 0.17162813
000060 65 5d ac bd bf 83 ed be c8 c6 f6 bc 2f 3f ea 3e
       -0.08416251 -0.46389577 -0.030124083 0.4575133
000070 f8 51 bf 3c 67 4f b0 3e 8e 60 fe 3c ab 5c 96 be
       0.023354515 0.3443558 0.0310519 -0.29367575
000080 74 68 06 be 7e fb 6b be 59 1e 6e be ae d8 bb 3d
       -0.13125783 -0.23045155 -0.23253764 0.09172188
000090 0e df c0 be 63 00 bd 3e 2f b0 d9 3e 3f c1 23 bd
       -0.37670177 0.36914358 0.4251723 -0.039979216
0000a0 51 52 ed be 2b 7b a0 3e f1 1c cd 3e 90 d5 97 3e
       -0.46351865 0.3134397 0.40061143 0.29655123
0000b0 c3 6d 74 be 07 c9 95 be 57 13 6f bd 0d a8 f4 3e
       -0.23869996 -0.29254934 -0.058368053 0.47784463
0000c0 5e b6 91 3e 76 da 29 be 18 c8 ca 3e 7b 31 ab 3e
       0.28459448 -0.16587242 0.39605784 0.33436188
0000d0 93 33 87 3d e7 7d 4b be 73 60 d1 3d 2f e4 44 3e
       0.06601634 -0.19872247 0.10223474 0.1922767
0000e0 ec 1e 73 3e 8d c8 f4 3e bd f0 93 3e af ba 4a bd
       0.23742265 0.47809258 0.28894606 -0.04949444
0000f0 64 24 ad 3e d2 4b 97 be fa 9f 8a be f7 5e 06 be
       0.33816826 -0.29550034 -0.27075177 -0.13122164
000100 fb 2e c6 3e a3 2c 47 3c 21 4e bf 3e 96 f4 8f 3e
       0.38707718 0.012156638 0.37364295 0.28116292
000110 c5 2b 23 be 1d 26 a8 be fb 87 b9 3e e2 31 a8 be
       -0.15934666 -0.32841578 0.36236557 -0.32850558
000120 5e c0 02 3e 1e 14 be be 5a fc 1a 3e 4d d7 62 bd
       0.12768695 -0.37124723 0.15135327 -0.055381108
000130 f5 f4 ca be e9 3b 9d 3e 92 f5 88 3e 11 db b3 be
       -0.39640012 0.3070977 0.26749855 -0.35128072
000140 13 3e 56 be 10 c5 d1 3e b8 88 63 be f9 08 c4 3e
       -0.20922117 0.4097066 -0.22220123 0.38288096
000150 cc e1 86 bd d5 9d 63 be db bc a1 3d f1 cb b8 3c
       -0.06586036 -0.22228177 0.078973494 0.022558184
000160 23 aa 85 be 68 61 4b be 6f c7 b3 3e 9b 3b fa 3e
       -0.26106367 -0.19861376 0.35113093 0.488736
000170 a9 ec f5 3e 8f 1e a4 be 23 81 2b be 46 2f ef 3e
       0.4803212 -0.32054564 -0.1674848 0.46715754
000180 e7 53 1a 3e b1 b0 df bd 1b df 37 be 0e 10 a6 bd
       0.15071069 -0.10922373 -0.17956202 -0.08108531
000190 34 a0 c8 be 1a 4d 30 be 90 b8 6d be c0 ef 95 3e
       -0.39184725 -0.17216912 -0.23214936 0.29284477
0001a0 96 36 fc 3d 9f 5a ad 3e 09 f1 a7 3d 36 b5 85 bd
       0.12315099 0.338582 0.08200271 -0.06528704
0001b0 be f7 2b 3e c0 a0 c1 3e fa 08 e9 3e c6 ca 6b 3e
       0.16793725 0.37817955 0.4551466 0.2302657
0001c0 b7 18 f0 3e 7f c1 49 be 95 9e 1a be 39 27 8b be
       0.46893856 -0.19702719 -0.15099557 -0.27178362
0001d0 45 c7 d7 be b1 be e8 be ba 3a c9 be 6c f8 d7 be
       -0.42144218 -0.45457986 -0.39302617 -0.42181718
0001e0 8e 05 d7 be ae dd 37 3e 52 81 1f 3e e8 da c0 be
       -0.41996425 0.17955658 0.15576676 -0.37667012
0001f0 8e d6 84 3e 1d a9 e1 be b6 ce cd 3e f7 e1 c3 3e
       0.25944942 -0.44074336 0.4019677 0.38258335

VAE.encoder_mu.layers.0.linear1.weight f4 [4, 128]
000000 8f 0b 67 bd f0 59 c5 bc b8 9f ba bd a4 50 80 3c
       -0.056407508 -0.024090737 -0.09112495 0.015663452
000010 7b 9e 48 bd 78 da 2f bd 96 38 b4 bd 27 31 94 3b
       -0.048979264 -0.042932957 -0.087998554 0.004522461
000020 de f4 a9 bd b2 bf 6a bd bc fd 6d 3c cc 07 8e bd
       -0.08298658 -0.05731172 0.014525827 -0.06935081
000030 8a 65 0f 3d 39 6e dc bc 45 4b 14 3d 31 53 6e 3d
       0.035008945 -0.026908027 0.036204595 0.058184806
000040 d1 c0 8c 3c d9 f5 89 3d 02 7f 0f 3d 27 fd 5d bd
       0.017181786 0.06736345 0.035033233 -0.054196503
000050 0d 6e 45 3d 98 cf 36 3d f1 80 35 3d f8 40 32 3d
       0.048200656 0.04463157 0.04431242 0.04351899
000060 0e 43 aa bd 0e 98 f2 3d 97 ec 9b bd 2c 87 8d 3c
       -0.08313571 0.118454084 -0.07613485 0.017276369
000070 1a 9b d9 3c 69 b2 2f bc dd f1 2b bb 63 ac ef 3b
       0.026563216 -0.010723689 -0.002623669 0.0073142513
000080 86 ac 8d 3d c0 e5 d4 3c ad ff e6 bc cf 49 55 bd
       0.06917672 0.02598846 -0.028198088 -0.052072342
000090 8b b6 3a 3d 2e c0 6a 3d bd 4c 93 3d 65 7e ae 3d
       0.045584243 0.057312183 0.07192371 0.085202016
0000a0 ab dd c9 bd 8f 55 a1 bd f6 b7 26 bd 34 8e 97 3c
       -0.09856733 -0.07877647 -0.040702783 0.018500425
0000b0 f5 be 29 3c c8 83 2c bd d4 2d b5 bd 6b 62 8c bd
       0.010360469 -0.042117864 -0.08846632 -0.06854709
0000c0 f2 9d 0d 3d af 78 4f 3d 4f f8 64 3d ea 82 2e bd
       0.034574457 0.050652202 0.055900868 -0.042605318
0000d0 c7 dc 2c 3d 9c f5 29 3d 07 02 87 bc cd e6 f3 bc
       0.042202737 0.041493997 -0.016480459 -0.02977314
0000e0 77 11 1b bc 37 f9 91 bd 7e fb 41 bc 8b d5 6b bd
       -0.009464613 -0.07127612 -0.011839746 -0.057576697
0000f0 97 56 07 3d 0d 90 03 bd 3c e2 67 3d d8 41 b3 bd
       0.033041563 -0.0321198 0.05661224 -0.08752793
000100 f5 63 20 3c 48 e3 56 3d 25 42 65 bd a0 dc 25 3d
       0.009789457 0.052462846 -0.055971283 0.040493608
000110 93 6d e1 bd 24 a5 01 3d 8d 88 f9 bc bc 0d 0e bd
       -0.11007228 0.03165163 -0.03046062 -0.034681067
000120 85 db 94 3d c6 16 8c bb d8 bb 79 3d 7d 66 34 bd
       0.072684325 -0.0042751757 0.060970157 -0.044043053
000130 b8 1c 9c bc d4 be ab 3d b4 dd ac 3d 06 06 cc 3c
       -0.019056663 0.08386007 0.08440724 0.024905216
000140 7b c2 05 3d 2f 5c 56 bd ed 2d 64 bd 7c 67 15 3d
       0.032656174 -0.052334007 -0.05570786 0.036475644
000150 69 77 d2 bc 7c 56 3e bd 1f aa 04 3d 71 83 2a 3c
       -0.025691705 -0.046469197 0.032388803 0.010407315
000160 e2 ff 01 3d 89 89 ba bd cd 40 f9 bd b8 c7 a6 3d
       0.03173817 -0.09108264 -0.12170563 0.08143562
000170 3e 95 2d bc 6e 5d af bc 61 68 80 3d bc 76 85 bd
       -0.010594664 -0.021406855 0.06269909 -0.065167874
000180 e1 55 8e 3b 24 cc ab bd 57 c2 97 bc 24 8f 24 bd
       0.0043437337 -0.08388546 -0.018525286 -0.040175572
000190 6d f5 8c 3c 38 38 57 bd 7b 29 8a 3c a2 0e b5 bd
       0.017206872 -0.05254385 0.016865483 -0.088406816
0001a0 9b 1a 48 bc 30 55 0f bd b2 51 b3 bc a6 a0 6e bd
       -0.0122133745 -0.03499335 -0.021889541 -0.058258675
0001b0 a8 29 da bc 40 db 50 3d 29 10 8c bd d9 1f 2a 3d
       -0.026631191 0.050990343 -0.0683902 0.04153428
0001c0 fa 88 88 bd e6 19 08 3d 2e 7a f8 bc e5 e3 72 bd
       -0.06666751 0.033227824 -0.030331697 -0.05929937
0001d0 cd 1e f0 bd 9f e4 0d bd b7 ef 70 3d 68 10 e7 3d
       -0.11724625 -0.03464186 0.05882236 0.11282426
0001e0 cc f8 4a 3d 96 a5 17 bd d8 3b 85 bd 03 fe af 3d
       0.049553677 -0.03702315 -0.06505555 0.08593371
0001f0 90 3f 5a bd 39 b3 42 bd ae 87 06 3d e3 45 97 3c
       -0.053283274 -0.0475342 0.032844238 0.018465942
000200 28 1a f1 bc 89 e6 80 bd 84 17 5a bc d7 91 3d 3c
       -0.029431418 -0.06293971 -0.013311271 0.011570415
000210 2d d6 0e 3b 43 77 7a 3b 91 78 57 3c 69 78 cb bd
       0.002179514 0.0038218058 0.013151304 -0.09935076
000220 bc 72 98 bc f3 28 10 bc bc cb bc bc 23 ae ae 3d
       -0.018609397 -0.008798826 -0.023046367 0.08529308
000230 fa 6b 9b bc 0a c6 13 3d 3e 40 f9 bb 06 94 d1 3c
       -0.018972386 0.036077537 -0.007606535 0.025583278
000240 78 ab e4 bd 2e 3d d9 bd 68 f1 11 3b 66 27 2c bd
       -0.111655176 -0.10607372 0.0022269133 -0.04202976
000250 38 4e 98 bd 18 23 5e bc 88 74 6b bb 37 d8 f8 bd
       -0.07436794 -0.013558172 -0.0035927612 -0.12150615
000260 b2 d6 bf 3d de 55 2d bc c6 42 93 3d 62 51 cf bb
       0.09367122 -0.010579554 0.071904704 -0.0063268403
000270 ac 1d 90 bd 0f bc 12 ba 46 29 05 3d e7 d5 5e 3c
       -0.070369095 -0.0005597481 0.032510065 0.013600803
000280 6d e2 2a 3d a0 80 b4 3d 57 2d 81 bd 48 95 6c bd
       0.041719843 0.08813596 -0.06307476 -0.057759553
000290 b2 5e 99 bd f1 d7 8a 3c 43 99 c9 3c ef be 0c bd
       -0.07488765 0.016948672 0.024609214 -0.034361776
0002a0 e4 65 c7 3d 8b b3 11 3c e9 39 df 3d 82 2f e9 3c
       0.09736231 0.008892904 0.10899717 0.028465036
0002b0 7c 4c 01 be 0f f5 9e bc 20 a9 94 3d 14 dc 83 bd
       -0.12626833 -0.019403962 0.072588205 -0.06438461
0002c0 28 5a 4e bd a9 53 36 bc 9f 0f 3d 3d e0 bd 14 bc
       -0.05037895 -0.011128345 0.046157476 -0.009078473
0002d0 80 aa 41 3c fd e2 cf bd a5 b6 52 3d fc b3 e3 3d
       0.0118204355 -0.101507165 0.051443715 0.11118314
0002e0 b1 f9 b7 bd 31 b3 a1 bd ef dc 05 3d c7 2d ae 3d
       -0.08983172 -0.07895506 0.0326814 0.08504825
0002f0 03 35 71 bd d8 e4 58 bd 25 9c b5 bd b0 22 82 3d
       -0.058888447 -0.052952617 -0.08867673 0.06354272
000300 07 e0 1a 3c 14 5e 3e bd b2 3e 75 bd 71 ec 97 3c
       0.009452826 -0.04647644 -0.059874244 0.018545361
000310 b9 ba d4 3d 17 1a 24 bd 0b ca b0 bd a4 c0 7a bd
       0.10387177 -0.040063944 -0.08632287 -0.061218873
000320 a9 6c 57 3d 6c cb 22 3c db 18 c2 bd a4 db be 3d
       0.05259386 0.009936195 -0.09477397 0.09319237
000330 1e d5 3b 3d a2 93 26 bd 84 c9 2b 3d 1e 5d b0 3c
       0.04585754 -0.040668137 0.041940227 0.021528777
000340 32 4d c2 bc 32 dc 70 bc 20 d4 0c 3c 80 ad a3 bb
       -0.02371845 -0.014700936 0.008595496 -0.004995048
000350 4c ff 4b 3d 30 de 94 bd 8c 86 d5 bd 63 a6 59 3d
       0.049804017 -0.072689414 -0.104260534 0.053137194
000360 2e 5b be 3c 9c c2 18 bc 16 41 bc bc c7 a9 34 bd
       0.023236837 -0.009323742 -0.022980254 -0.044107225
000370 68 aa 32 3b 52 b5 43 bd b7 ce f0 3c 40 cb e7 3d
       0.0027262215 -0.047780342 0.029395444 0.11318064
000380 12 0a 0f 3d 87 b0 90 bc 47 07 d6 3c e5 ce 1b 3d
       0.034921713 -0.0176623 0.026126517 0.038039107
000390 7f 1d 25 bd e4 8f b2 bd 29 bd 1e bc 6f ed ce 3c
       -0.040311333 -0.08718851 -0.009688654 0.025259702
0003a0 b0 25 4d 3d d7 bd 1b 3c e4 f5 d9 bd ee 1e 22 3c
       0.05008477 0.009505711 -0.10642603 0.0098950695
0003b0 5e f9 16 3d 50 c6 96 bd 89 25 78 3d 91 a9 cf 3d
       0.03685891 -0.07362044 0.06058267 0.10139764
0003c0 92 4c 8a bc 72 fa ff 3c 6d 77 e2 bb 32 61 56 bc
       -0.016882215 0.031247351 -0.0069112093 -0.013084697
0003d0 5d 9b eb bc 6b 6b fe 3c 18 0a 76 3d da 36 4d bc
       -0.028760606 0.03105708 0.06006822 -0.012525285
0003e0 72 e6 84 3d 82 97 46 bd 2c b1 24 bd cb 68 f3 bc
       0.064892665 -0.048484333 -0.040208027 -0.029713055
0003f0 7f 7d 89 bb 3e 87 1d 3a 91 08 3d bd 48 6e a5 3c
       -0.0041958685 0.00060092274 -0.046150748 0.020194188

VAE.encoder_mu.layers.0.linear1.bias f4 [4]
000000 b4 3d 64 bd 9e 5c 31 bd 61 f9 1c bd b6 5a da 3c
       -0.055722907 -0.043301217 -0.038323764 0.026654582

VAE.encoder_mu.layers.0.norm1.weight f4 [4]
000000 db ed 84 3f c5 6b 82 3f d6 57 85 3f 0d 03 85 3f
       1.0385088 1.0189139 1.041743 1.0391556

VAE.encoder_mu.layers.0.norm1.bias f4 [4]
000000 70 97 8a bc e4 1b 66 bb dc d5 f3 3c 2a 99 ca bc
       -0.016917914 -0.003511184 0.029765062 -0.024731237

VAE.encoder_mu.layers.1.attention.W_q.weight f4 [4, 4]
000000 5d cc e0 3e 3e e0 85 be 6b 41 a0 be 12 b0 d4 be
       0.43905917 -0.26147646 -0.3129991 -0.4154058
000010 7f 49 3f 3e 06 23 f0 be 49 35 3e be c9 64 a1 3e
       0.1868038 -0.4690172 -0.18575014 0.31522205
000020 a4 d3 d6 3e c2 64 06 bf 06 c7 e1 be e6 77 9a bd
       0.41958344 -0.52497494 -0.44097155 -0.075424
000030 1a 84 31 3e 1a 12 78 3e 6d bc ad be ca b1 84 be
       0.17335549 0.24225655 -0.3393282 -0.25916892

VAE.encoder_mu.layers.1.attention.W_q.bias f4 [4]
000000 8d 3e 5b 3d 28 c9 7a 3c 13 f7 49 3d 98 c4 54 3d
       0.05352645 0.015306748 0.049307894 0.0519453

VAE.encoder_mu.layers.1.attention.W_k.weight f4 [4, 4]
000000 a0 d4 89 bd 53 0d b1 be 85 64 4f 3d 6e f2 36 be
       -0.06730008 -0.34580478 0.050632972 -0.17865917
000010 de 98 bd be bf a0 f9 bd 60 4d a0 bc 27 3a c7 3e
       -0.3703069 -0.12188863 -0.019568145 0.38911554
000020 04 b1 89 3e 42 43 a5 be 9c f3 91 3e 1b 8b c9 be
       0.26892865 -0.32277876 0.28506172 -0.39363942
000030 2e 79 7b 3e f9 81 39 3d 94 e7 e4 3e 92 38 8a 3e
       0.24557945 0.045289967 0.4470793 0.26996285

VAE.encoder_mu.layers.1.attention.W_k.bias f4 [4]
000000 d0 a4 3d b9 0f c3 af b9 96 f6 dd b8 a5 8e 85 b9
       -0.00018085842 -0.0003352393 -0.000105840314 -0.00025474015

VAE.encoder_mu.layers.1.attention.W_v.weight f4 [4, 4]
000000 a2 fe 09 3d cb ef 76 be e6 cb e6 3e 1a 5b b0 3c
       0.033690102 -0.24114911 0.45077437 0.021527816
000010 44 4c be be d0 70 20 be a4 e9 8e be 61 eb 97 be
       -0.3716756 -0.15668035 -0.2791263 -0.29671767
000020 86 e8 90 be 45 64 65 3d ec 4c c4 3e c1 e1 a3 be
       -0.283024 0.056003828 0.38339937 -0.32008174
000030 45 18 e1 3d ad 8e e2 3e 79 75 a5 be a6 6a e9 be
       0.10990957 0.44249478 -0.32316187 -0.4558918

VAE.encoder_mu.layers.1.attention.W_v.bias f4 [4]
000000 32 5d 3c bc c1 33 77 3c 83 8c 52 bc 33 8d f2 bc
       -0.011496829 0.015088023 -0.012850883 -0.029608345

VAE.encoder_mu.layers.1.linear0.weight f4 [128, 4]
000000 fc 56 c8 be 55 1d 9e 3e c3 0e 42 3e de 49 6c 3e
       -0.39128864 0.30881754 0.18950944 0.23075053
000010 a2 e6 b0 3e 1b 14 15 3d 12 b3 45 3e 5c 5d ac be
       0.3455096 0.036396127 0.19306591 -0.33664978
000020 b1 07 64 be 31 1c c9 be 25 79 8f 3e 42 85 ff 3d
       -0.22268559 -0.3927932 0.28022113 0.12476589
000030 ba a7 83 be 1d ac 09 bf 5c 0f 8b be e7 20 65 be
       -0.25713903 -0.5377825 -0.27160156 -0.22375832
000040 74 70 51 3e c1 a8 82 be a2 4b b8 3e 57 4d 13 3e
       0.20453054 -0.25519374 0.35995203 0.14384972
000050 7c b7 bc be 00 77 07 3e 57 4f 93 3d 96 0f 7e 3c
       -0.36858737 0.13228989 0.07192867 0.015506646
000060 24 23 da 3e 8f 4e 04 bd c8 52 0f be d5 36 71 be
       0.42604935 -0.03230148 -0.13996422 -0.23556073
000070 3d 5a ea be 9c 77 01 3e d4 3f c0 3e 76 52 56 bd
       -0.4577197 0.12643284 0.37548697 -0.052324735
000080 21 45 b7 be cd 97 40 3e 0d e3 9e 3e 7f 05 bb 3d
       -0.3579493 0.18807907 0.310326 0.09131908
000090 3b 49 6d bd f6 71 c9 bc 34 42 c0 3d ae a3 87 3d
       -0.057931166 -0.024590474 0.09387627 0.06623016
0000a0 fa 67 c7 be 0a 36 9d be b2 36 90 be f4 1b d5 be
       -0.38946515 -0.3070529 -0.2816673 -0.4162289
0000b0 03 0b a8 3e 1d 4b d1 3e 51 bd 0d 3e 81 e7 85 3e
       0.328209 0.4087762 0.1384175 0.26153186
0000c0 6c 68 1b bc bb e8 f9 3e e8 95 99 3e c8 5f ee 3e
       -0.009485345 0.48810372 0.29997182 0.4655745
0000d0 d3 42 93 3e 0c 2d ac 3e 70 90 af 3e 80 70 20 be
       0.2876192 0.33628118 0.34289885 -0.15667915
0000e0 63 f0 7c 3e df 41 8e 3e b3 44 0a 3e de 93 9b 3e
       0.24701075 0.2778463 0.13502769 0.3038625
0000f0 07 1f 7e be b6 ba dd 3d 52 20 e4 3e 7d f8 3b be
       -0.24816523 0.10826628 0.44555908 -0.1835651
000100 74 f9 5e 3e 78 0f 90 be 29 b9 4b bd 09 71 5c be
       0.21774846 -0.28136802 -0.04973713 -0.21527494
000110 91 43 a7 3e e3 0c cb be 17 03 e1 be 24 00 ed bd
       0.32668737 -0.3965827 -0.4394767 -0.115722924
000120 66 58 53 be b7 7c e0 3e 61 e8 92 be b2 f0 82 3e
       -0.2063919 0.4384515 -0.28692916 0.2557426
000130 7d ba eb 3e 0d 27 08 bf c0 2d 98 3c 9d 44 36 3e
       0.46040717 -0.53184587 0.018576503 0.17799611
000140 f8 dd 98 bd 97 18 cf be c5 d1 c7 be 89 34 8c be
       -0.07464212 -0.40448448 -0.3902723 -0.2738383
000150 2a 3c 84 be e5 23 ac bd 26 0a bd bd 70 e0 3b be
       -0.25827152 -0.08405284 -0.09230451 -0.18347335
000160 98 cb 76 be 3e 2c ae be 96 bb 97 be 6e c4 d4 be
       -0.24101102 -0.3401813 -0.29635304 -0.41556114
000170 e6 2c aa 3e ab f5 bc 3e ba 68 1d 3e 3e 4f 18 be
       0.3323738 0.3690618 0.15371981 -0.14873978
000180 d5 f6 99 3e 53 97 77 bd 85 a2 ea 3d f8 6d 46 3e
       0.3007113 -0.06044705 0.114567794 0.19377887
000190 09 68 b3 3e ba 4c a1 be cc e2 c9 3e 3e c1 b5 be
       0.3504031 -0.3150385 0.39430845 -0.35498995
0001a0 b9 a8 f1 3e de 33 4f 3e af 04 83 bd 5b 3e 01 bf
       0.47199038 0.2023463 -0.06397378 -0.5048577
0001b0 b3 28 a3 be ee 0f df be 63 87 d3 be 0b 6b a3 bd
       -0.3186699 -0.4356684 -0.4131423 -0.07979401
0001c0 80 5e fe be 54 41 c7 3e 38 73 f8 bd 13 18 4f be
       -0.49681473 0.3891703 -0.12131351 -0.20224027
0001d0 4d ee 9b 3e 69 a8 a7 3e 10 3c 91 be 00 9a aa 3e
       0.30455247 0.32745674 -0.28366137 0.33320618
0001e0 11 aa bc be 18 52 ae 3e 9c 7a a0 be ab d4 66 3d
       -0.368485 0.34047008 -0.31343544 0.05635516
0001f0 77 05 fe 3d bc c7 2e 3e a3 7a 8d be 13 6a 1b 3e
       0.12403386 0.1706838 -0.27632627 0.15177183
000200 67 46 b4 3c cf c6 bd 3e 6b 5c 02 3f 78 01 1b be
       0.022006227 0.3706574 0.5092227 -0.15137279
000210 ba 5f cc 3e 82 55 b4 3e 1e 24 8f 3e 7e 22 90 be
       0.39916784 0.35221487 0.27957243 -0.28151315
000220 fd 2c 46 be 3d 5e ec 3e b2 f0 4b 3e 3a 9d c2 3d
       -0.19353099 0.46165648 0.19916037 0.09502645
000230 61 32 7b 3e da dc c3 3e 5d 77 04 bf 06 05 f0 3d
       0.24530937 0.38254434 -0.51744634 0.11719708
000240 76 2f 45 3a 6f 0e e8 bd 40 f5 03 bf 10 8e 8a be
       0.0007522026 -0.11330878 -0.51546097 -0.2706151
000250 32 32 a6 be 74 ad 3c 3e 98 d8 f4 bd 5b 25 63 3e
       -0.3246017 0.18425542 -0.119553745 0.22182219
000260 15 00 49 3d 58 48 25 3d 78 f7 77 be 2b e0 e9 be
       0.049072344 0.040352196 -0.24215496 -0.4567884
000270 3c 00 8a 3e d7 53 a7 be 6d 84 95 3e a5 6a 6a bd
       0.26953304 -0.32681152 0.29202595 -0.05723061
000280 b4 52 d5 3e c1 9f 06 be 69 ed 68 3e 1e 28 a8 bd
       0.4166466 -0.13146879 0.22746815 -0.08210777
000290 36 a1 6c be 90 06 fe be dd fd 4c bd 46 e4 99 be
       -0.23108372 -0.49614382 -0.05004679 -0.3005697
0002a0 7e 39 12 3e 34 5d 03 3e 76 8e bb 3e 50 21 e9 3e
       0.14279744 0.12828523 0.36632127 0.45533228
0002b0 99 66 c0 bb 33 c4 54 be 0c 5f 69 be 2d 8c 8e 3e
       -0.0058716056 -0.20777969 -0.22790164 0.2784132
0002c0 8f b5 71 3e 1a c5 8e be b7 28 cd be 77 3b 22 3e
       0.23604415 -0.27884752 -0.40070125 0.15842997
0002d0 b6 19 66 bd 08 90 db bd 46 e8 c4 be 5d cc 32 3e
       -0.056176864 -0.10720831 -0.3845846 0.17460771
0002e0 30 39 7b be c7 57 97 3d bc 91 35 be d5 8f da be
       -0.24533534 0.07389789 -0.17731375 -0.4268786
0002f0 77 b8 b1 3e 9f 88 a8 3e c4 1d ee 3e 36 d7 14 3e
       0.34711048 0.32916734 0.46507084 0.14535221
000300 3b d3 c6 be 40 a9 db be 09 f3 76 bd 9a 31 05 3f
       -0.3883303 -0.42902565 -0.06029037 0.5202881
000310 78 22 a2 bd 41 a8 da 3e 8f 70 f4 bc 4f 99 29 3e
       -0.07916731 0.42706493 -0.029838828 0.16562389
000320 11 6e 94 3e c7 1a 93 be 9f b2 e4 3d 82 ee f4 3e
       0.28990224 -0.28731367 0.11166882 0.47838217
000330 8b 0e b4 bd 47 52 93 3e db 96 59 be 5e 4a d9 be
       -0.08791836 0.2877371 -0.21248953 -0.4243955
000340 39 04 76 be 60 09 67 be b6 55 49 bd 76 8d 40 3e
       -0.24025048 -0.2256217 -0.049154006 0.18803963
000350 f4 3e 8b be 22 94 d2 bd 63 f3 35 3e 30 b3 11 3e
       -0.27196467 -0.1028216 0.17768626 0.14228511
000360 aa f7 e2 bd d2 0a 50 be 96 f0 cd 3e 2f e8 90 3d
       -0.110823944 -0.20316628 0.40222615 0.070755355
000370 dd 7f 0a be 73 27 44 be 19 50 c1 be 31 7c e1 3e
       -0.13525338 -0.19155674 -0.37756422 0.44040063
000380 eb 6d a2 3e 02 50 bb 3e c8 89 da 3e c9 85 42 3e
       0.31724486 0.3658448 0.42683244 0.18996347
000390 1c 8f f9 be 4f e7 42 be f7 9d 31 3d 61 86 03 bf
       -0.48741996 -0.1903355 0.043363538 -0.5137692
0003a0 fe a1 20 3c 19 e3 be be 58 d3 7c 3d ec e5 5b 3c
       0.009804247 -0.37282637 0.06172499 0.013421517
0003b0 6c 32 b9 3e 31 13 8c be da f8 a9 3e 6e 8e 9b be
       0.3617128 -0.27358392 0.3319767 -0.30382103
0003c0 a0 cd 5e 3e 0c 02 c0 3d dd 96 71 3e d4 02 7a be
       0.21758127 0.093753904 0.23592706 -0.24415141
0003d0 08 cf fc be f4 3b e6 be fe aa f8 be 59 09 39 3d
       -0.49376702 -0.44967616 -0.48567957 0.04517493
0003e0 08 15 d9 3e ff d0 b9 3c b8 91 55 be 97 32 06 be
       0.42398858 0.022682665 -0.20856369 -0.13105236
0003f0 f2 fb ed 3e 89 2d 7f be cf 20 92 bc 7b a5 a1 3e
       0.46481282 -0.24919714 -0.01783791 0.31571564

VAE.encoder_mu.layers.1.linear0.bias f4 [128]
000000 99 e0 e4 3e fb 77 21 3e 2e 6e c1 3d 88 51 dc 3d
       0.44702604 0.15768425 0.09444843 0.10757738
000010 4c 9a 96 3e 41 bd 88 bc 22 06 9c 3e 01 e4 6a 3e
       0.29414594 -0.016691806 0.3047343 0.22938539
000020 bb e6 cc be 77 29 70 be a0 c2 6b be d2 46 b0 3e
       -0.40019783 -0.23453318 -0.23023462 0.34429032
000030 86 66 8e be 56 77 e5 3e 7d 89 64 be ab d2 b5 be
       -0.27812594 0.4481761 -0.22318073 -0.3551229
000040 dc d7 41 be 20 0b d4 3e 8d 14 e5 be b0 30 cc 3e
       -0.1893 0.41414738 -0.44742242 0.39880896
000050 af 54 a9 3e 26 9a 1c 3e 68 9b 8c be b8 3e 56 bd
       0.3307242 0.15293178 -0.27462316 -0.052305907
000060 a0 5b d4 3e 84 7a aa bb 13 b6 02 3f 17 2d 50 be
       0.41476154 -0.0052025933 0.51059073 -0.203297
000070 0a e6 a6 3e dc be 09 be 54 7a f3 3e 31 b0 a4 be
       0.3259738 -0.13451713 0.47554266 -0.32165673
000080 20 f8 61 3d 7e 5f a6 3e 7e e1 5c be 54 c3 e2 3d
       0.05516827 0.3249473 -0.21570393 0.11072412
000090 38 c6 32 be 19 23 39 3d 9b 45 cc 3e 8f b0 36 be
       -0.17458427 0.045199487 0.39896855 -0.1784079
0000a0 e0 5e 14 be b7 4e 80 bc 23 2a 41 3e 43 84 d7 3e
       -0.14489317 -0.015662534 0.1886373 0.42093095
0000b0 49 bb d4 3d 0c 15 88 be 93 51 34 be 3c 2e 84 bd
       0.10387284 -0.26578557 -0.17609243 -0.06454131
0000c0 1c 1a 57 be 13 79 6f 3e 76 2c 7e 3e f9 a5 ae be
       -0.21006054 0.2338603 0.24821648 -0.34111002
0000d0 5c 21 9b 3e 61 5d d7 bc 1b a9 01 3f 00 4f bb 3d
       0.3029889 -0.026289644 0.5064866 0.091459274
0000e0 65 c5 e3 3e 9f 3d 9f 3e a2 f9 91 3e 43 e1 db 3e
       0.44486538 0.311017 0.28510767 0.429453
0000f0 c4 87 39 3b 34 9a b7 3d a0 85 98 be 2b cb c5 be
       0.0028309682 0.08964959 -0.29789448 -0.38631567
000100 25 95 7f be 9c 1a 82 3d 54 54 90 be 29 6c b8 3e
       -0.24959238 0.063527316 -0.28189337 0.3602002
000110 60 61 98 3e 31 54 92 3d c0 43 b3 be b0 1f 05 3f
       0.2976179 0.071449645 -0.35012627 0.52001476
000120 aa f2 ae be 5d 9f 0e be 3e 8d 91 3e 6a 2b a4 3e
       -0.34169513 -0.1392798 0.28428072 0.32064372
000130 c8 4f e8 be 57 3d 66 3c 29 95 d1 be c2 03 b4 3e
       -0.45373368 0.0140527105 -0.40934113 0.35159117
000140 8e 0d d3 be c2 4d cb be aa 57 a1 be d4 23 d7 be
       -0.4122128 -0.39707762 -0.31512195 -0.42019522
000150 b9 bc af 3c 63 fa eb 3e cd 36 28 be 8e 3a bb 3e
       0.021452295 0.46089467 -0.16427155 0.3656811
000160 f9 a7 5b bb 82 49 c0 3e 17 21 b7 be e0 cd 20 be
       -0.0033516868 0.37556082 -0.35767433 -0.15703535
000170 8a 87 6f be 0d 06 94 3e e5 b3 52 3e 1e 98 8e be
       -0.23391548 0.28910866 0.20576437 -0.2785043
000180 d6 91 a7 3e 28 ea d9 bd 3a f6 48 3e af 05 f1 be
       0.32728451 -0.10640365 0.19625178 -0.4707465
000190 da 40 98 be 7e d4 00 3d cb f3 46 ba c5 5c 33 be
       -0.29736978 0.03145265 -0.00075894286 -0.17515858
0001a0 2f 57 2f 3e 83 95 11 3e 25 b3 00 be 7e 74 20 be
       0.17123102 0.1421719 -0.12568338 -0.15669438
0001b0 72 ee 1c be 16 f4 8c 3e 38 2e dc be 75 19 66 3c
       -0.15325335 0.27529973 -0.43004012 0.014044155
0001c0 62 8a f0 3e 28 dd 79 be f7 9c 65 3e 47 5d b0 3e
       0.46980578 -0.2440077 0.22423159 0.34446165
0001d0 b7 d4 1e 3e 45 75 24 3e 3c 13 b7 3d 59 e1 99 be
       0.15510832 0.1606036 0.089392155 -0.3005474
0001e0 82 92 c6 bb 89 1c 90 3d a6 06 4f be 81 8b 10 3c
       -0.0060599456 0.07036693 -0.2021738 0.008822323
0001f0 c2 ab 87 3e ae 0f e4 3e 20 12 b8 3c 79 a1 20 3e
       0.26498228 0.44543213 0.02246958 0.15686597

VAE.encoder_mu.layers.1.linear1.weight f4 [4, 128]
000000 0f 97 1c 3c 73 93 91 bd 19 a2 57 bc 0a 82 03 3d
       0.0095575 -0.07108202 -0.013161206 0.032106437
000010 74 46 0e bc ec a0 48 3d f3 e9 a5 bd 22 23 e6 ba
       -0.0086837895 0.048981592 -0.08101263 -0.0017558078
000020 0a d1 2b 3d 1a 3e 13 3d d8 18 34 bd ce c6 44 3c
       0.041947402 0.035947897 -0.043969005 0.012010289
000030 7d 14 b3 bd ab 64 16 3d 27 00 93 3c f2 88 75 bd
       -0.08744142 0.0367171 0.017944409 -0.059945054
000040 01 30 b5 bc ee 99 9b 3d e4 98 16 bc cc 2d 90 3d
       -0.022117617 0.07597719 -0.009191725 0.07039985
000050 1e 78 7b bc cc 78 64 bc 76 d9 99 bd de 08 e1 bd
       -0.015348462 -0.013944816 -0.075121805 -0.109880194
000060 99 ee 8f 3d 83 54 72 bd 99 8e 4f bd 4b 8d 54 bd
       0.07027931 -0.059162628 -0.0506731 -0.05189256
000070 db 90 ad bd ca 94 33 bd 2e 5a ce bd 73 94 22 bd
       -0.084748946 -0.04384307 -0.10075794 -0.039692353
000080 97 9f 51 3c ec a1 1b bd 75 1c ab bd 69 d4 31 3d
       0.012794397 -0.037996218 -0.08355037 0.04341546
000090 3e 6d dc bd e5 35 0d 3d 40 d8 43 bd 49 14 84 bd
       -0.10763024 0.034475226 -0.047813654 -0.064491816
0000a0 b1 5c 2b bd 23 9d d7 3d 3d 2b 20 bc 8c 26 c5 3a
       -0.041836444 0.10528018 -0.009775934 0.0015041395
0000b0 3e fa 2a bc 79 7f 38 bd 7e 88 4d 3d 28 40 c7 bd
       -0.010435639 -0.045043442 0.050178997 -0.09729034
0000c0 e0 34 c7 3d a1 ee 2d 3d cb d8 0b 3c 08 fd 54 3c
       0.09726882 0.042463902 0.008535574 0.0129997805
0000d0 4f 93 1d 3d f4 e8 9b 3c 43 35 9d bb dc f7 19 3d
       0.038470563 0.01903198 -0.004797609 0.037589893
0000e0 b2 9f a5 bd 45 ec 05 3c 5a 5f 82 3d 9c c3 81 3d
       -0.080871 0.008174007 0.06365843 0.06336138
0000f0 2f 1c 89 bd 77 4c 88 bc 33 7d ab bc a6 0f 86 3c
       -0.06694829 -0.016638024 -0.020933723 0.016364884
000100 55 73 59 bd 4a 0a 94 3d 11 8c 86 bd a1 91 89 bc
       -0.053088505 0.07228525 -0.06569684 -0.016793074
000110 f6 12 19 bc 41 54 09 bd 0b 47 f5 3d 8f bf 24 3d
       -0.0093429 -0.033527616 0.11976441 0.040221747
000120 4a 21 b6 bd 0e 25 36 bd 1d 36 c6 bd c1 e2 ab bb
       -0.08893068 -0.04446893 -0.0967829 -0.005245537
000130 e0 a4 6f 3d 00 62 8f bd 03 33 98 bd 1a 0b f3 bc
       0.058506846 -0.07001114 -0.07431605 -0.02966838
000140 f8 3b 97 bc 5a f6 f8 bd bf 35 1a 3d 73 dc 44 3d
       -0.018461213 -0.12156363 0.037648913 0.0480618
000150 9c 32 02 3c 3e 99 b2 bd 8b 92 fa 3c ee fa ce bd
       0.0079466365 -0.08720635 0.030587455 -0.10106455
000160 4f 65 b9 bc 18 df cd 3c d1 4a 17 bd 23 2b 29 bd
       -0.022631316 0.025130793 -0.036936585 -0.041300904
000170 ac c3 ca 3c b8 f1 8c bc 60 92 33 bd db 5f 7a bc
       0.024751507 -0.017205104 -0.043840766 -0.015281643
000180 47 3d 82 bc 7c e7 86 3d 7c 3f 44 bd 9a 69 02 bd
       -0.01589836 0.06587121 -0.047912106 -0.03183899
000190 b3 93 7c bd 51 17 2c 3d 6f 1a c9 3d d8 1f 91 bd
       -0.061664294 0.042014424 0.09819495 -0.07086152
0001a0 d0 da 8f 3b 7a 86 93 bc 58 41 89 3d 01 25 68 3d
       0.004390098 -0.01800846 0.067019165 0.056675915
0001b0 b9 d9 a0 3d 1d 51 8e bd ff 3c ac bc ac 38 52 bc
       0.07854027 -0.06949065 -0.021025179 -0.012830894
0001c0 b7 a0 ab bc e6 a0 a4 bc 23 ac 0e bd 70 17 80 bd
       -0.020950658 -0.020096254 -0.03483213 -0.0625447
0001d0 46 5b 04 3d 80 2a b8 bb 74 d1 a8 ba fa 3a df 3c
       0.032313608 -0.005620301 -0.0012879805 0.027249802
0001e0 62 88 b0 bd 14 fb 54 3d 12 b6 2d 3d 9d f9 74 bd
       -0.08619763 0.05199726 0.042409964 -0.059808362
0001f0 19 00 f0 3b cb 39 b9 bb ce 6f aa bd d9 4a 69 3d
       0.0073242304 -0.0056526414 -0.08322106 0.056956146
000200 14 08 1e 3c 66 44 48 bd 8e 52 18 bd 91 17 05 3d
       0.009645481 -0.048893355 -0.037188105 0.032493178
000210 04 b6 8f bd cb 00 69 bd 99 0b 5e 3b 63 08 a6 3c
       -0.070171386 -0.05688552 0.0033881424 0.020267671
000220 97 bb b0 3c 20 66 91 3d 24 65 43 3d 96 6d 83 3b
       0.021573825 0.07099557 0.047703877 0.0040108664
000230 07 01 9e 3d 24 31 04 bd 0d 29 39 3d 77 ad e9 3d
       0.0771504 -0.032273427 0.045205165 0.11410039
000240 34 3e a2 bd f2 4d 2b 3c 53 09 6d bd ee df f4 3b
       -0.079220206 0.010455595 -0.05787022 0.0074729836
000250 40 1a 5b 3d 2b b2 58 bd 00 1d ab 3b 13 d8 d0 3d
       0.05349183 -0.05290429 0.005221963 0.10197463
000260 53 53 02 bd bc f5 3f 3d fa 18 ee 3d 95 22 25 3d
       -0.031817745 0.04686521 0.11625858 0.040316183
000270 53 8c 39 3d 29 1c 52 bb 30 56 72 3d 61 ab 78 3d
       0.04529984 -0.0032060242 0.059164226 0.060710315
000280 d0 5a a6 3d 07 75 62 3d 98 d9 bb 3b 1d 6e 80 3d
       0.0812279 0.055287387 0.0057327263 0.062710024
000290 e0 51 db 3d e0 de d4 3c 57 43 07 bb d6 64 ca 3c
       0.10708976 0.025985181 -0.0020639503 0.024706285
0002a0 c1 01 82 bc 12 4c 05 bd 1c bb 3a bb ac 10 72 3d
       -0.015869977 -0.03254325 -0.0028492874 0.05909793
0002b0 5a 28 67 3d 2e 4b 86 3d 64 6c 03 3c 2b 69 ae 3d
       0.056434967 0.06557308 0.008021448 0.08516153
0002c0 fb c6 3c 3d 68 95 9e 3d 4d fa 33 bd 21 27 47 bd
       0.0460882 0.07743341 -0.043939877 -0.0486213
0002d0 f6 17 e0 bc 4e 93 ae 3d a9 7d bc bc fc c1 0d bb
       -0.027355175 0.0852419 -0.023009138 -0.0021630516
0002e0 db 49 6e 3c 38 aa 39 3d c7 26 47 bc bb 8e 65 bd
       0.014543976 0.04532835 -0.012155241 -0.05604432
0002f0 85 69 5e bc a3 65 33 bd 17 fd ea 3d 89 99 18 bd
       -0.0135749625 -0.0437981 0.11474054 -0.037255798
000300 78 23 03 3d 7d 97 51 bd 5b 8f 2e 3d 5f 17 5e 3d
       0.032016248 -0.05116986 0.042617183 0.054221507
000310 47 42 02 3c 46 73 22 bc ab 6c c0 bd d1 53 b5 bd
       0.007950372 -0.009915179 -0.09395727 -0.08853877
000320 db e1 e6 3a e4 96 ed 3d 4a 91 c5 3c cb 07 63 3d
       0.0017614918 0.11601046 0.02411713 0.055427354
000330 26 4d 86 3c 5e 76 0d 3d 11 1f 96 bd 45 a3 05 bd
       0.01639421 0.034536712 -0.07330144 -0.03262641
000340 a9 68 5d 3b be 24 fe 3d b7 b8 61 3d 27 02 97 3c
       0.0033784306 0.12409352 0.0551078 0.018433644
000350 f7 fd af 3d 21 f5 44 3b fd 26 b2 3d 19 0a ca 3d
       0.08593362 0.0030053335 0.08698843 0.09865207
000360 97 9b bf bd e8 4b ca 3d f4 b8 ab bd 8f dd 8a bd
       -0.09355848 0.09877759 -0.083848864 -0.0678054
000370 22 8b 56 3d 90 8e ff bd a1 09 c0 3c 06 ba 5d bd
       0.05237878 -0.124783635 0.023442091 -0.054132484
000380 f4 50 10 3d 8f 49 e5 bd c1 2c 9b 39 ee 40 eb 3b
       0.035233453 -0.11195671 0.00029597248 0.007179371
000390 87 67 ad bc 91 37 00 bd eb 47 f3 bb 4a c4 98 bd
       -0.02116753 -0.031302992 -0.007424345 -0.07459314
0003a0 d3 6e 28 3d f7 38 dc 3d 08 d6 26 3d 64 2a 8d 3d
       0.041121315 0.10753053 0.04073146 0.06892851
0003b0 30 ab b5 bd b3 a8 ad bc 1b 03 8c bd fb e5 c3 bc
       -0.08870542 -0.021198606 -0.0683653 -0.023913374
0003c0 b1 74 87 bc a6 a6 72 3d 93 79 ce bd e4 2e c4 3d
       -0.016535135 0.05924096 -0.10081782 0.09579256
0003d0 9f 53 1d bc cf c8 f3 3d 3f 74 39 3d 65 c7 9f bc
       -0.009602456 0.119035356 0.045276877 -0.019504258
0003e0 8c 6c b7 3d 3d be 1d bd 2e 2c d8 bb 0d 0e 81 3b
       0.089562505 -0.038511503 -0.0065970635 0.0039384426
0003f0 1f 23 46 bd ca bf a3 bc e0 a0 69 bd 18 19 01 bd
       -0.048373338 -0.019988913 -0.057038188 -0.031518072

VAE.encoder_mu.layers.1.linear1.bias f4 [4]
000000 09 fb 12 3d fb b4 9c bd 86 95 23 3c ca a4 d1 bb
       0.035883937 -0.07651707 0.00998438 -0.006397818

VAE.encoder_mu.layers.1.norm1.weight f4 [4]
000000 63 f8 84 3f 7c 40 83 3f f5 f3 83 3f 38 3d 83 3f
       1.0388302 1.0254054 1.0308825 1.0253057

VAE.encoder_mu.layers.1.norm1.bias f4 [4]
000000 3d 8c e0 3c dc 03 a7 3c 72 c2 00 3d 97 61 7a 3b
       0.02741062 0.020387582 0.031435438 0.003820514

VAE.encoder_mu.layers.1.norm0.weight f4 [4]
000000 50 15 80 3f 76 69 85 3f 8d 55 82 3f 52 e2 77 3f
       1.0006504 1.0422809 1.0182358 0.9682971

VAE.encoder_mu.layers.1.norm0.bias f4 [4]
000000 db e2 04 bc 3f 0f e6 bc 34 5e c4 bc 1b 2e a8 3c
       -0.008110727 -0.028083442 -0.0239707 0.020529797

VAE.encoder_mu.last_normalization.weight f4 [4]
000000 00 00 80 3f 00 00 80 3f 00 00 80 3f 00 00 80 3f
       1.0 1.0 1.0 1.0

VAE.encoder_mu.last_normalization.bias f4 [4]
000000 00 00 00 00 00 00 00 00 00 00 00 00 00 00 00 00
       0.0 0.0 0.0 0.0

VAE.encoder_mu.head.weight f4 [4, 4]
000000 40 40 13 bc be ff a5 be d8 40 9d be a2 d5 d6 3e
       -0.008987486 -0.32421678 -0.30713534 0.41959864
000010 00 7b a0 bd 88 06 a2 bd 40 78 42 bc 78 da 02 be
       -0.078359604 -0.07911402 -0.01186949 -0.12778652
000020 e0 9f a9 be 88 e7 c6 3d 54 e7 66 3e 18 66 f2 3d
       -0.33129787 0.0971213 0.22549182 0.11835879
000030 d4 0c 1b be 94 f7 0f 3e 70 02 24 be 96 b9 de 3e
       -0.15141612 0.14059287 -0.16016555 0.43500966

VAE.encoder_mu.head.bias f4 [4]
000000 00 8e 54 3d b0 17 cd be 20 f6 cc 3e 7e 4f dc be
       0.051893234 -0.40057135 0.40031528 -0.43029398

VAE.encoder_logvar.layers.0.attention.W_q.weight f4 [4, 4]
000000 cf 30 38 bc 77 c2 9b bd 0f 3e 4f 3e 42 c4 cd 3e
       -0.011242106 -0.076054506 0.20238517 0.40188795
000010 c3 8e f5 be a1 7c 92 be cc 08 81 3a c8 0c 09 be
       -0.4796048 -0.2861071 0.0009844541 -0.13383782
000020 a4 ed 7a be 37 d5 b9 3d 8c 5c 91 3e a7 ef 79 bc
       -0.24504715 0.09073871 0.2839092 -0.0152548915
000030 49 dc 4d 3d 3e 3b 36 3e de f2 81 3e 59 80 08 3f
       0.05025891 0.17796037 0.25380605 0.53320843

VAE.encoder_logvar.layers.0.attention.W_q.bias f4 [4]
000000 2b 6c 19 3d 78 c7 17 bd 77 dc 07 3d 1f 9a ac bb
       0.037456673 -0.037055463 0.033169236 -0.005267396

VAE.encoder_logvar.layers.0.attention.W_k.weight f4 [4, 4]
000000 72 34 d8 3e 59 f0 ab bc 1e 5d e9 be 67 00 50 be
       0.42227513 -0.02098863 -0.45578855 -0.20312653
000010 1d 44 de 3e 7a fe 11 be 00 83 d7 3e 0e 59 cd 3d
       0.4341134 -0.14257231 0.42092133 0.100267515
000020 21 a6 6e 3e f5 70 0a bf 59 fe bc be fa a5 34 be
       0.2330556 -0.5407861 -0.36912802 -0.1764144
000030 51 51 fd bd 07 1b eb be 0f a0 e2 bd e0 e5 c2 3d
       -0.123690255 -0.45919058 -0.11065685 0.095165014
